…
  train    |   237 |    10534
  query    |   112 |     1961
  gallery  |   194 |     4133
  ------------------------------
  total    |   349 |    16628
  number of images per tracklet: 1 ~ 2436, average 76.0
  ------------------------------
Initializing model: se_resnet50_cosam45_tp
instantiating SE_ResNet net typesenet50 from e:\GitHub\vidreid_cosegmentation\src\models\SE_ResNet.py
attention type ['NONE', 'NONE', 'NONE', 'COSAM', 'COSAM']
Initialized model with pretrained weights from http://data.lip6.fr/cadene/pretrainedmodels/se_resnet50-ce0d4300.pth
setting stride of  Sequential(
  (0): SEResNetBottleneck(
    (conv1): Conv2d(1024, 512, kernel_size=(1, 1), stride=(2, 2), bias=False)
    (bn1): BatchNorm2d(512, eps=1e-05, momentum=0.1, affine=True, track_running_stats=True)
    (conv2): Conv2d(512, 512, kernel_size=(3, 3), stride=(1, 1), padding=(1, 1), bias=False)
    (bn2): BatchNorm2d(512, eps=1e-05, momentum=0.1, affine=True, track_running_stats=True)
    (conv3): Conv2d(512, 2048, kernel_size=(1, 1), stride=(1, 1), bias=False)
    (bn3): BatchNorm2d(2048, eps=1e-05, momentum=0.1, affine=True, track_running_stats=True)
    (relu): ReLU(inplace=True)
    (se_module): SEModule(
      (avg_pool): AdaptiveAvgPool2d(output_size=1)
      (fc1): Conv2d(2048, 128, kernel_size=(1, 1), stride=(1, 1))
      (relu): ReLU(inplace=True)
      (fc2): Conv2d(128, 2048, kernel_size=(1, 1), stride=(1, 1))
      (sigmoid): Sigmoid()
    )
    (downsample): Sequential(
      (0): Conv2d(1024, 2048, kernel_size=(1, 1), stride=(2, 2), bias=False)
      (1): BatchNorm2d(2048, eps=1e-05, momentum=0.1, affine=True, track_running_stats=True)
    )
  )
  (1): SEResNetBottleneck(
    (conv1): Conv2d(2048, 512, kernel_size=(1, 1), stride=(1, 1), bias=False)
    (bn1): BatchNorm2d(512, eps=1e-05, momentum=0.1, affine=True, track_running_stats=True)
    (conv2): Conv2d(512, 512, kernel_size=(3, 3), stride=(1, 1), padding=(1, 1), bias=False)
    (bn2): BatchNorm2d(512, eps=1e-05, momentum=0.1, affine=True, track_running_stats=True)
    (conv3): Conv2d(512, 2048, kernel_size=(1, 1), stride=(1, 1), bias=False)
    (bn3): BatchNorm2d(2048, eps=1e-05, momentum=0.1, affine=True, track_running_stats=True)
    (relu): ReLU(inplace=True)
    (se_module): SEModule(
      (avg_pool): AdaptiveAvgPool2d(output_size=1)
      (fc1): Conv2d(2048, 128, kernel_size=(1, 1), stride=(1, 1))
      (relu): ReLU(inplace=True)
      (fc2): Conv2d(128, 2048, kernel_size=(1, 1), stride=(1, 1))
      (sigmoid): Sigmoid()
    )
  )
  (2): SEResNetBottleneck(
    (conv1): Conv2d(2048, 512, kernel_size=(1, 1), stride=(1, 1), bias=False)
    (bn1): BatchNorm2d(512, eps=1e-05, momentum=0.1, affine=True, track_running_stats=True)
    (conv2): Conv2d(512, 512, kernel_size=(3, 3), stride=(1, 1), padding=(1, 1), bias=False)
    (bn2): BatchNorm2d(512, eps=1e-05, momentum=0.1, affine=True, track_running_stats=True)
    (conv3): Conv2d(512, 2048, kernel_size=(1, 1), stride=(1, 1), bias=False)
    (bn3): BatchNorm2d(2048, eps=1e-05, momentum=0.1, affine=True, track_running_stats=True)
    (relu): ReLU(inplace=True)
    (se_module): SEModule(
      (avg_pool): AdaptiveAvgPool2d(output_size=1)
      (fc1): Conv2d(2048, 128, kernel_size=(1, 1), stride=(1, 1))
      (relu): ReLU(inplace=True)
      (fc2): Conv2d(128, 2048, kernel_size=(1, 1), stride=(1, 1))
      (sigmoid): Sigmoid()
    )
  )
)  to  1
[(64, 32), (64, 32), (32, 16), (16, 8), (16, 8)]
instantiating CosegAttention
instantiating Identity
instantiating Identity
instantiating Identity
instantiating COSAM with in-channels: 1024, t = 4, hw = (16, 8)
instantiating COSAM with in-channels: 2048, t = 4, hw = (16, 8)
instantiating AggregationTP
Model size: 28.93872M
…
